…
07, 'lr': [0.0005]}, 'scoring': {'_name': 'bleu', 'pad': 1, 'eos': 2, 'unk': 3}, 'bpe': None, 'tokenizer': None, 'ema': {'_name': None, 'store_ema': False, 'ema_decay': 0.9999, 'ema_start_update': 0, 'ema_seed_model': None, 'ema_update_freq': 1, 'ema_fp32': False}}
2022-10-28 12:07:59 | INFO | fairseq.tasks.translation | [SRC] dictionary: 35904 types
2022-10-28 12:07:59 | INFO | fairseq.tasks.translation | [TGT] dictionary: 32088 types
2022-10-28 12:08:01 | INFO | fairseq_cli.train | TransformerModel(
  (encoder): TransformerEncoderBase(
    (dropout_module): FairseqDropout()
    (embed_tokens): Embedding(35904, 512, padding_idx=1)
    (embed_positions): SinusoidalPositionalEmbedding()
    (layernorm_embedding): FusedLayerNorm(torch.Size([512]), eps=1e-05, elementwise_affine=True)
    (layers): ModuleList(
      (0): TransformerEncoderLayerBase(
        (self_attn): MultiheadAttention(
          (dropout_module): FairseqDropout()
          (k_proj): Linear(in_features=512, out_features=512, bias=True)
          (v_proj): Linear(in_features=512, out_features=512, bias=True)
          (q_proj): Linear(in_features=512, out_features=512, bias=True)
          (out_proj): Linear(in_features=512, out_features=512, bias=True)
        )
        (self_attn_layer_norm): FusedLayerNorm(torch.Size([512]), eps=1e-05, elementwise_affine=True)
        (dropout_module): FairseqDropout()
        (activation_dropout_module): FairseqDropout()
        (fc1): Linear(in_features=512, out_features=2048, bias=True)
        (fc2): Linear(in_features=2048, out_features=512, bias=True)
        (final_layer_norm): FusedLayerNorm(torch.Size([512]), eps=1e-05, elementwise_affine=True)
      )
      (1): TransformerEncoderLayerBase(
        (self_attn): MultiheadAttention(
          (dropout_module): FairseqDropout()
          (k_proj): Linear(in_features=512, out_features=512, bias=True)
          (v_proj): Linear(in_features=512, out_features=512, bias=True)
          (q_proj): Linear(in_features=512, out_features=512, bias=True)
          (out_proj): Linear(in_features=512, out_features=512, bias=True)
        )
        (self_attn_layer_norm): FusedLayerNorm(torch.Size([512]), eps=1e-05, elementwise_affine=True)
        (dropout_module): FairseqDropout()
        (activation_dropout_module): FairseqDropout()
        (fc1): Linear(in_features=512, out_features=2048, bias=True)
        (fc2): Linear(in_features=2048, out_features=512, bias=True)
        (final_layer_norm): FusedLayerNorm(torch.Size([512]), eps=1e-05, elementwise_affine=True)
      )
      (2): TransformerEncoderLayerBase(
        (self_attn): MultiheadAttention(
          (dropout_module): FairseqDropout()
          (k_proj): Linear(in_features=512, out_features=512, bias=True)
          (v_proj): Linear(in_features=512, out_features=512, bias=True)
          (q_proj): Linear(in_features=512, out_features=512, bias=True)
          (out_proj): Linear(in_features=512, out_features=512, bias=True)
        )
        (self_attn_layer_norm): FusedLayerNorm(torch.Size([512]), eps=1e-05, elementwise_affine=True)
        (dropout_module): FairseqDropout()
        (activation_dropout_module): FairseqDropout()
        (fc1): Linear(in_features=512, out_features=2048, bias=True)
        (fc2): Linear(in_features=2048, out_features=512, bias=True)
        (final_layer_norm): FusedLayerNorm(torch.Size([512]), eps=1e-05, elementwise_affine=True)
      )
      (3): TransformerEncoderLayerBase(
        (self_attn): MultiheadAttention(
          (dropout_module): FairseqDropout()
          (k_proj): Linear(in_features=512, out_features=512, bias=True)
          (v_proj): Linear(in_features=512, out_features=512, bias=True)
          (q_proj): Linear(in_features=512, out_features=512, bias=True)
          (out_proj): Linear(in_features=512, out_features=512, bias=True)
        )
        (self_attn_layer_norm): FusedLayerNorm(torch.Size([512]), eps=1e-05, elementwise_affine=True)
        (dropout_module): FairseqDropout()
        (activation_dropout_module): FairseqDropout()
        (fc1): Linear(in_features=512, out_features=2048, bias=True)
        (fc2): Linear(in_features=2048, out_features=512, bias=True)
        (final_layer_norm): FusedLayerNorm(torch.Size([512]), eps=1e-05, elementwise_affine=True)
      )
      (4): TransformerEncoderLayerBase(
        (self_attn): MultiheadAttention(
          (dropout_module): FairseqDropout()
          (k_proj): Linear(in_features=512, out_features=512, bias=True)
          (v_proj): Linear(in_features=512, out_features=512, bias=True)
          (q_proj): Linear(in_features=512, out_features=512, bias=True)
          (out_proj): Linear(in_features=512, out_features=512, bias=True)
        )
        (self_attn_layer_norm): FusedLayerNorm(torch.Size([512]), eps=1e-05, elementwise_affine=True)
        (dropout_module): FairseqDropout()
        (activation_dropout_module): FairseqDropout()
        (fc1): Linear(in_features=512, out_features=2048, bias=True)
        (fc2): Linear(in_features=2048, out_features=512, bias=True)
        (final_layer_norm): FusedLayerNorm(torch.Size([512]), eps=1e-05, elementwise_affine=True)
      )
      (5): TransformerEncoderLayerBase(
        (self_attn): MultiheadAttention(
          (dropout_module): FairseqDropout()
          (k_proj): Linear(in_features=512, out_features=512, bias=True)
          (v_proj): Linear(in_features=512, out_features=512, bias=True)
          (q_proj): Linear(in_features=512, out_features=512, bias=True)
          (out_proj): Linear(in_features=512, out_features=512, bias=True)
        )
        (self_attn_layer_norm): FusedLayerNorm(torch.Size([512]), eps=1e-05, elementwise_affine=True)
        (dropout_module): FairseqDropout()
        (activation_dropout_module): FairseqDropout()
        (fc1): Linear(in_features=512, out_features=2048, bias=True)
        (fc2): Linear(in_features=2048, out_features=512, bias=True)
        (final_layer_norm): FusedLayerNorm(torch.Size([512]), eps=1e-05, elementwise_affine=True)
      )
    )
    (layer_norm): FusedLayerNorm(torch.Size([512]), eps=1e-05, elementwise_affine=True)
  )
  (decoder): TransformerDecoderBase(
    (dropout_module): FairseqDropout()
    (embed_tokens): Embedding(32088, 512, padding_idx=1)
    (embed_positions): SinusoidalPositionalEmbedding()
    (layernorm_embedding): FusedLayerNorm(torch.Size([512]), eps=1e-05, elementwise_affine=True)
    (layers): ModuleList(
      (0): TransformerDecoderLayerBase(
        (dropout_module): FairseqDropout()
        (self_attn): MultiheadAttention(
          (dropout_module): FairseqDropout()
          (k_proj): Linear(in_features=512, out_features=512, bias=True)
          (v_proj): Linear(in_features=512, out_features=512, bias=True)
          (q_proj): Linear(in_features=512, out_features=512, bias=True)
          (out_proj): Linear(in_features=512, out_features=512, bias=True)
        )
        (activation_dropout_module): FairseqDropout()
        (self_attn_layer_norm): FusedLayerNorm(torch.Size([512]), eps=1e-05, elementwise_affine=True)
        (encoder_attn): MultiheadAttention(
          (dropout_module): FairseqDropout()
          (k_proj): Linear(in_features=512, out_features=512, bias=True)
          (v_proj): Linear(in_features=512, out_features=512, bias=True)
          (q_proj): Linear(in_features=512, out_features=512, bias=True)
          (out_proj): Linear(in_features=512, out_features=512, bias=True)
        )
        (encoder_attn_layer_norm): FusedLayerNorm(torch.Size([512]), eps=1e-05, elementwise_affine=True)
        (fc1): Linear(in_features=512, out_features=2048, bias=True)
        (fc2): Linear(in_features=2048, out_features=512, bias=True)
        (final_layer_norm): FusedLayerNorm(torch.Size([512]), eps=1e-05, elementwise_affine=True)
      )
      (1): TransformerDecoderLayerBase(
        (dropout_module): FairseqDropout()
        (self_attn): MultiheadAttention(
          (dropout_module): FairseqDropout()
          (k_proj): Linear(in_features=512, out_features=512, bias=True)
          (v_proj): Linear(in_features=512, out_features=512, bias=True)
          (q_proj): Linear(in_features=512, out_features=512, bias=True)
          (out_proj): Linear(in_features=512, out_features=512, bias=True)
        )
        (activation_dropout_module): FairseqDropout()
        (self_attn_layer_norm): FusedLayerNorm(torch.Size([512]), eps=1e-05, elementwise_affine=True)
        (encoder_attn): MultiheadAttention(
          (dropout_module): FairseqDropout()
          (k_proj): Linear(in_features=512, out_features=512, bias=True)
          (v_proj): Linear(in_features=512, out_features=512, bias=True)
          (q_proj): Linear(in_features=512, out_features=512, bias=True)
          (out_proj): Linear(in_features=512, out_features=512, bias=True)
        )
        (encoder_attn_layer_norm): FusedLayerNorm(torch.Size([512]), eps=1e-05, elementwise_affine=True)
        (fc1): Linear(in_features=512, out_features=2048, bias=True)
        (fc2): Linear(in_features=2048, out_features=512, bias=True)
        (final_layer_norm): FusedLayerNorm(torch.Size([512]), eps=1e-05, elementwise_affine=True)
      )
      (2): TransformerDecoderLayerBase(
        (dropout_module): FairseqDropout()
        (self_attn): MultiheadAttention(
          (dropout_module): FairseqDropout()
          (k_proj): Linear(in_features=512, out_features=512, bias=True)
          (v_proj): Linear(in_features=512, out_features=512, bias=True)
          (q_proj): Linear(in_features=512, out_features=512, bias=True)
          (out_proj): Linear(in_features=512, out_features=512, bias=True)
        )
        (activation_dropout_module): FairseqDropout()
        (self_attn_layer_norm): FusedLayerNorm(torch.Size([512]), eps=1e-05, elementwise_affine=True)
        (encoder_attn): MultiheadAttention(
          (dropout_module): FairseqDropout()
          (k_proj): Linear(in_features=512, out_features=512, bias=True)
          (v_proj): Linear(in_features=512, out_features=512, bias=True)
          (q_proj): Linear(in_features=512, out_features=512, bias=True)
          (out_proj): Linear(in_features=512, out_features=512, bias=True)
        )
        (encoder_attn_layer_norm): FusedLayerNorm(torch.Size([512]), eps=1e-05, elementwise_affine=True)
        (fc1): Linear(in_features=512, out_features=2048, bias=True)
        (fc2): Linear(in_features=2048, out_features=512, bias=True)
        (final_layer_norm): FusedLayerNorm(torch.Size([512]), eps=1e-05, elementwise_affine=True)
      )
      (3): TransformerDecoderLayerBase(
        (dropout_module): FairseqDropout()
        (self_attn): MultiheadAttention(
          (dropout_module): FairseqDropout()
          (k_proj): Linear(in_features=512, out_features=512, bias=True)
          (v_proj): Linear(in_features=512, out_features=512, bias=True)
          (q_proj): Linear(in_features=512, out_features=512, bias=True)
          (out_proj): Linear(in_features=512, out_features=512, bias=True)
        )
        (activation_dropout_module): FairseqDropout()
        (self_attn_layer_norm): FusedLayerNorm(torch.Size([512]), eps=1e-05, elementwise_affine=True)
        (encoder_attn): MultiheadAttention(
          (dropout_module): FairseqDropout()
          (k_proj): Linear(in_features=512, out_features=512, bias=True)
          (v_proj): Linear(in_features=512, out_features=512, bias=True)
          (q_proj): Linear(in_features=512, out_features=512, bias=True)
          (out_proj): Linear(in_features=512, out_features=512, bias=True)
        )
        (encoder_attn_layer_norm): FusedLayerNorm(torch.Size([512]), eps=1e-05, elementwise_affine=True)
        (fc1): Linear(in_features=512, out_features=2048, bias=True)
        (fc2): Linear(in_features=2048, out_features=512, bias=True)
        (final_layer_norm): FusedLayerNorm(torch.Size([512]), eps=1e-05, elementwise_affine=True)
      )
      (4): TransformerDecoderLayerBase(
        (dropout_module): FairseqDropout()
        (self_attn): MultiheadAttention(
          (dropout_module): FairseqDropout()
          (k_proj): Linear(in_features=512, out_features=512, bias=True)
          (v_proj): Linear(in_features=512, out_features=512, bias=True)
          (q_proj): Linear(in_features=512, out_features=512, bias=True)
          (out_proj): Linear(in_features=512, out_features=512, bias=True)
        )
        (activation_dropout_module): FairseqDropout()
        (self_attn_layer_norm): FusedLayerNorm(torch.Size([512]), eps=1e-05, elementwise_affine=True)
        (encoder_attn): MultiheadAttention(
          (dropout_module): FairseqDropout()
          (k_proj): Linear(in_features=512, out_features=512, bias=True)
          (v_proj): Linear(in_features=512, out_features=512, bias=True)
          (q_proj): Linear(in_features=512, out_features=512, bias=True)
          (out_proj): Linear(in_features=512, out_features=512, bias=True)
        )
        (encoder_attn_layer_norm): FusedLayerNorm(torch.Size([512]), eps=1e-05, elementwise_affine=True)
        (fc1): Linear(in_features=512, out_features=2048, bias=True)
        (fc2): Linear(in_features=2048, out_features=512, bias=True)
        (final_layer_norm): FusedLayerNorm(torch.Size([512]), eps=1e-05, elementwise_affine=True)
      )
      (5): TransformerDecoderLayerBase(
        (dropout_module): FairseqDropout()
        (self_attn): MultiheadAttention(
          (dropout_module): FairseqDropout()
          (k_proj): Linear(in_features=512, out_features=512, bias=True)
          (v_proj): Linear(in_features=512, out_features=512, bias=True)
          (q_proj): Linear(in_features=512, out_features=512, bias=True)
          (out_proj): Linear(in_features=512, out_features=512, bias=True)
        )
        (activation_dropout_module): FairseqDropout()
        (self_attn_layer_norm): FusedLayerNorm(torch.Size([512]), eps=1e-05, elementwise_affine=True)
        (encoder_attn): MultiheadAttention(
          (dropout_module): FairseqDropout()
          (k_proj): Linear(in_features=512, out_features=512, bias=True)
          (v_proj): Linear(in_features=512, out_features=512, bias=True)
          (q_proj): Linear(in_features=512, out_features=512, bias=True)
          (out_proj): Linear(in_features=512, out_features=512, bias=True)
        )
        (encoder_attn_layer_norm): FusedLayerNorm(torch.Size([512]), eps=1e-05, elementwise_affine=True)
        (fc1): Linear(in_features=512, out_features=2048, bias=True)
        (fc2): Linear(in_features=2048, out_features=512, bias=True)
        (final_layer_norm): FusedLayerNorm(torch.Size([512]), eps=1e-05, elementwise_affine=True)
      )
    )
    (layer_norm): FusedLayerNorm(torch.Size([512]), eps=1e-05, elementwise_affine=True)
    (output_projection): Linear(in_features=512, out_features=32088, bias=False)
  )
)
2022-10-28 12:08:01 | INFO | fairseq_cli.train | task: TranslationTask
2022-10-28 12:08:01 | INFO | fairseq_cli.train | model: TransformerModel
2022-10-28 12:08:01 | INFO | fairseq_cli.train | criterion: KDLabelSmoothedCrossEntropyCriterion
2022-10-28 12:08:01 | INFO | fairseq_cli.train | num. shared model params: 95,383,552 (num. trained: 95,383,552)
…
2022-10-28 12:08:34 | WARNING | fairseq.tasks.fairseq_task | 11,612 samples have invalid sizes and will be skipped, max_positions=(210, 210), first few sample ids=[38134819, 6246747, 2525593, 1919047, 33622048, 7799562, 4508869, 12466026, 14778728, 20258840]
2022-10-28 12:08:34 | INFO | fairseq.optim.adam | using FusedAdam
2022-10-28 12:08:36 | WARNING | fairseq.tasks.fairseq_task | 11,612 samples have invalid sizes and will be skipped, max_positions=(210, 210), first few sample ids=[38134819, 6246747, 2525593, 1919047, 33622048, 7799562, 4508869, 12466026, 14778728, 20258840]
2022-10-28 12:08:59 | INFO | fairseq_cli.train | loaded teacher model TransformerModel(
  (encoder): TransformerEncoderBase(
    (dropout_module): FairseqDropout()
    (embed_tokens): Embedding(35904, 1536, padding_idx=1)
    (embed_positions): SinusoidalPositionalEmbedding()
    (layers): ModuleList(
      (0): TransformerEncoderLayerBase(
        (self_attn): MultiheadAttention(
          (dropout_module): FairseqDropout()
          (k_proj): Linear(in_features=1536, out_features=1536, bias=True)
          (v_proj): Linear(in_features=1536, out_features=1536, bias=True)
          (q_proj): Linear(in_features=1536, out_features=1536, bias=True)
          (out_proj): Linear(in_features=1536, out_features=1536, bias=True)
        )
        (self_attn_layer_norm): FusedLayerNorm(torch.Size([1536]), eps=1e-05, elementwise_affine=True)
        (dropout_module): FairseqDropout()
        (activation_dropout_module): FairseqDropout()
        (fc1): Linear(in_features=1536, out_features=4096, bias=True)
        (fc2): Linear(in_features=4096, out_features=1536, bias=True)
        (final_layer_norm): FusedLayerNorm(torch.Size([1536]), eps=1e-05, elementwise_affine=True)
      )
      (1): TransformerEncoderLayerBase(
        (self_attn): MultiheadAttention(
          (dropout_module): FairseqDropout()
          (k_proj): Linear(in_features=1536, out_features=1536, bias=True)
          (v_proj): Linear(in_features=1536, out_features=1536, bias=True)
          (q_proj): Linear(in_features=1536, out_features=1536, bias=True)
          (out_proj): Linear(in_features=1536, out_features=1536, bias=True)
        )
        (self_attn_layer_norm): FusedLayerNorm(torch.Size([1536]), eps=1e-05, elementwise_affine=True)
        (dropout_module): FairseqDropout()
        (activation_dropout_module): FairseqDropout()
        (fc1): Linear(in_features=1536, out_features=4096, bias=True)
        (fc2): Linear(in_features=4096, out_features=1536, bias=True)
        (final_layer_norm): FusedLayerNorm(torch.Size([1536]), eps=1e-05, elementwise_affine=True)
      )
      (2): TransformerEncoderLayerBase(
        (self_attn): MultiheadAttention(
          (dropout_module): FairseqDropout()
          (k_proj): Linear(in_features=1536, out_features=1536, bias=True)
          (v_proj): Linear(in_features=1536, out_features=1536, bias=True)
          (q_proj): Linear(in_features=1536, out_features=1536, bias=True)
          (out_proj): Linear(in_features=1536, out_features=1536, bias=True)
        )
        (self_attn_layer_norm): FusedLayerNorm(torch.Size([1536]), eps=1e-05, elementwise_affine=True)
        (dropout_module): FairseqDropout()
        (activation_dropout_module): FairseqDropout()
        (fc1): Linear(in_features=1536, out_features=4096, bias=True)
        (fc2): Linear(in_features=4096, out_features=1536, bias=True)
        (final_layer_norm): FusedLayerNorm(torch.Size([1536]), eps=1e-05, elementwise_affine=True)
      )
      (3): TransformerEncoderLayerBase(
        (self_attn): MultiheadAttention(
          (dropout_module): FairseqDropout()
          (k_proj): Linear(in_features=1536, out_features=1536, bias=True)
          (v_proj): Linear(in_features=1536, out_features=1536, bias=True)
          (q_proj): Linear(in_features=1536, out_features=1536, bias=True)
          (out_proj): Linear(in_features=1536, out_features=1536, bias=True)
        )
        (self_attn_layer_norm): FusedLayerNorm(torch.Size([1536]), eps=1e-05, elementwise_affine=True)
        (dropout_module): FairseqDropout()
        (activation_dropout_module): FairseqDropout()
        (fc1): Linear(in_features=1536, out_features=4096, bias=True)
        (fc2): Linear(in_features=4096, out_features=1536, bias=True)
        (final_layer_norm): FusedLayerNorm(torch.Size([1536]), eps=1e-05, elementwise_affine=True)
      )
      (4): TransformerEncoderLayerBase(
        (self_attn): MultiheadAttention(
          (dropout_module): FairseqDropout()
          (k_proj): Linear(in_features=1536, out_features=1536, bias=True)
          (v_proj): Linear(in_features=1536, out_features=1536, bias=True)
          (q_proj): Linear(in_features=1536, out_features=1536, bias=True)
          (out_proj): Linear(in_features=1536, out_features=1536, bias=True)
        )
        (self_attn_layer_norm): FusedLayerNorm(torch.Size([1536]), eps=1e-05, elementwise_affine=True)
        (dropout_module): FairseqDropout()
        (activation_dropout_module): FairseqDropout()
        (fc1): Linear(in_features=1536, out_features=4096, bias=True)
        (fc2): Linear(in_features=4096, out_features=1536, bias=True)
        (final_layer_norm): FusedLayerNorm(torch.Size([1536]), eps=1e-05, elementwise_affine=True)
      )
      (5): TransformerEncoderLayerBase(
        (self_attn): MultiheadAttention(
          (dropout_module): FairseqDropout()
          (k_proj): Linear(in_features=1536, out_features=1536, bias=True)
          (v_proj): Linear(in_features=1536, out_features=1536, bias=True)
          (q_proj): Linear(in_features=1536, out_features=1536, bias=True)
          (out_proj): Linear(in_features=1536, out_features=1536, bias=True)
        )
        (self_attn_layer_norm): FusedLayerNorm(torch.Size([1536]), eps=1e-05, elementwise_affine=True)
        (dropout_module): FairseqDropout()
        (activation_dropout_module): FairseqDropout()
        (fc1): Linear(in_features=1536, out_features=4096, bias=True)
        (fc2): Linear(in_features=4096, out_features=1536, bias=True)
        (final_layer_norm): FusedLayerNorm(torch.Size([1536]), eps=1e-05, elementwise_affine=True)
      )
    )
  )
  (decoder): TransformerDecoderBase(
    (dropout_module): FairseqDropout()
    (embed_tokens): Embedding(32088, 1536, padding_idx=1)
    (embed_positions): SinusoidalPositionalEmbedding()
    (layers): ModuleList(
      (0): TransformerDecoderLayerBase(
        (dropout_module): FairseqDropout()
        (self_attn): MultiheadAttention(
          (dropout_module): FairseqDropout()
          (k_proj): Linear(in_features=1536, out_features=1536, bias=True)
          (v_proj): Linear(in_features=1536, out_features=1536, bias=True)
          (q_proj): Linear(in_features=1536, out_features=1536, bias=True)
          (out_proj): Linear(in_features=1536, out_features=1536, bias=True)
        )
        (activation_dropout_module): FairseqDropout()
        (self_attn_layer_norm): FusedLayerNorm(torch.Size([1536]), eps=1e-05, elementwise_affine=True)
        (encoder_attn): MultiheadAttention(
          (dropout_module): FairseqDropout()
          (k_proj): Linear(in_features=1536, out_features=1536, bias=True)
          (v_proj): Linear(in_features=1536, out_features=1536, bias=True)
          (q_proj): Linear(in_features=1536, out_features=1536, bias=True)
          (out_proj): Linear(in_features=1536, out_features=1536, bias=True)
        )
        (encoder_attn_layer_norm): FusedLayerNorm(torch.Size([1536]), eps=1e-05, elementwise_affine=True)
        (fc1): Linear(in_features=1536, out_features=4096, bias=True)
        (fc2): Linear(in_features=4096, out_features=1536, bias=True)
        (final_layer_norm): FusedLayerNorm(torch.Size([1536]), eps=1e-05, elementwise_affine=True)
      )
      (1): TransformerDecoderLayerBase(
        (dropout_module): FairseqDropout()
        (self_attn): MultiheadAttention(
          (dropout_module): FairseqDropout()
          (k_proj): Linear(in_features=1536, out_features=1536, bias=True)
          (v_proj): Linear(in_features=1536, out_features=1536, bias=True)
          (q_proj): Linear(in_features=1536, out_features=1536, bias=True)
          (out_proj): Linear(in_features=1536, out_features=1536, bias=True)
        )
        (activation_dropout_module): FairseqDropout()
        (self_attn_layer_norm): FusedLayerNorm(torch.Size([1536]), eps=1e-05, elementwise_affine=True)
        (encoder_attn): MultiheadAttention(
          (dropout_module): FairseqDropout()
          (k_proj): Linear(in_features=1536, out_features=1536, bias=True)
          (v_proj): Linear(in_features=1536, out_features=1536, bias=True)
          (q_proj): Linear(in_features=1536, out_features=1536, bias=True)
          (out_proj): Linear(in_features=1536, out_features=1536, bias=True)
        )
        (encoder_attn_layer_norm): FusedLayerNorm(torch.Size([1536]), eps=1e-05, elementwise_affine=True)
        (fc1): Linear(in_features=1536, out_features=4096, bias=True)
        (fc2): Linear(in_features=4096, out_features=1536, bias=True)
        (final_layer_norm): FusedLayerNorm(torch.Size([1536]), eps=1e-05, elementwise_affine=True)
      )
      (2): TransformerDecoderLayerBase(
        (dropout_module): FairseqDropout()
        (self_attn): MultiheadAttention(
          (dropout_module): FairseqDropout()
          (k_proj): Linear(in_features=1536, out_features=1536, bias=True)
          (v_proj): Linear(in_features=1536, out_features=1536, bias=True)
          (q_proj): Linear(in_features=1536, out_features=1536, bias=True)
          (out_proj): Linear(in_features=1536, out_features=1536, bias=True)
        )
        (activation_dropout_module): FairseqDropout()
        (self_attn_layer_norm): FusedLayerNorm(torch.Size([1536]), eps=1e-05, elementwise_affine=True)
        (encoder_attn): MultiheadAttention(
          (dropout_module): FairseqDropout()
          (k_proj): Linear(in_features=1536, out_features=1536, bias=True)
          (v_proj): Linear(in_features=1536, out_features=1536, bias=True)
          (q_proj): Linear(in_features=1536, out_features=1536, bias=True)
          (out_proj): Linear(in_features=1536, out_features=1536, bias=True)
        )
        (encoder_attn_layer_norm): FusedLayerNorm(torch.Size([1536]), eps=1e-05, elementwise_affine=True)
        (fc1): Linear(in_features=1536, out_features=4096, bias=True)
        (fc2): Linear(in_features=4096, out_features=1536, bias=True)
        (final_layer_norm): FusedLayerNorm(torch.Size([1536]), eps=1e-05, elementwise_affine=True)
      )
      (3): TransformerDecoderLayerBase(
        (dropout_module): FairseqDropout()
        (self_attn): MultiheadAttention(
          (dropout_module): FairseqDropout()
          (k_proj): Linear(in_features=1536, out_features=1536, bias=True)
          (v_proj): Linear(in_features=1536, out_features=1536, bias=True)
          (q_proj): Linear(in_features=1536, out_features=1536, bias=True)
          (out_proj): Linear(in_features=1536, out_features=1536, bias=True)
        )
        (activation_dropout_module): FairseqDropout()
        (self_attn_layer_norm): FusedLayerNorm(torch.Size([1536]), eps=1e-05, elementwise_affine=True)
        (encoder_attn): MultiheadAttention(
          (dropout_module): FairseqDropout()
          (k_proj): Linear(in_features=1536, out_features=1536, bias=True)
          (v_proj): Linear(in_features=1536, out_features=1536, bias=True)
          (q_proj): Linear(in_features=1536, out_features=1536, bias=True)
          (out_proj): Linear(in_features=1536, out_features=1536, bias=True)
        )
        (encoder_attn_layer_norm): FusedLayerNorm(torch.Size([1536]), eps=1e-05, elementwise_affine=True)
        (fc1): Linear(in_features=1536, out_features=4096, bias=True)
        (fc2): Linear(in_features=4096, out_features=1536, bias=True)
        (final_layer_norm): FusedLayerNorm(torch.Size([1536]), eps=1e-05, elementwise_affine=True)
      )
      (4): TransformerDecoderLayerBase(
        (dropout_module): FairseqDropout()
        (self_attn): MultiheadAttention(
          (dropout_module): FairseqDropout()
          (k_proj): Linear(in_features=1536, out_features=1536, bias=True)
          (v_proj): Linear(in_features=1536, out_features=1536, bias=True)
          (q_proj): Linear(in_features=1536, out_features=1536, bias=True)
          (out_proj): Linear(in_features=1536, out_features=1536, bias=True)
        )
        (activation_dropout_module): FairseqDropout()
        (self_attn_layer_norm): FusedLayerNorm(torch.Size([1536]), eps=1e-05, elementwise_affine=True)
        (encoder_attn): MultiheadAttention(
          (dropout_module): FairseqDropout()
          (k_proj): Linear(in_features=1536, out_features=1536, bias=True)
          (v_proj): Linear(in_features=1536, out_features=1536, bias=True)
          (q_proj): Linear(in_features=1536, out_features=1536, bias=True)
          (out_proj): Linear(in_features=1536, out_features=1536, bias=True)
        )
        (encoder_attn_layer_norm): FusedLayerNorm(torch.Size([1536]), eps=1e-05, elementwise_affine=True)
        (fc1): Linear(in_features=1536, out_features=4096, bias=True)
        (fc2): Linear(in_features=4096, out_features=1536, bias=True)
        (final_layer_norm): FusedLayerNorm(torch.Size([1536]), eps=1e-05, elementwise_affine=True)
      )
      (5): TransformerDecoderLayerBase(
        (dropout_module): FairseqDropout()
        (self_attn): MultiheadAttention(
          (dropout_module): FairseqDropout()
          (k_proj): Linear(in_features=1536, out_features=1536, bias=True)
          (v_proj): Linear(in_features=1536, out_features=1536, bias=True)
          (q_proj): Linear(in_features=1536, out_features=1536, bias=True)
          (out_proj): Linear(in_features=1536, out_features=1536, bias=True)
        )
        (activation_dropout_module): FairseqDropout()
        (self_attn_layer_norm): FusedLayerNorm(torch.Size([1536]), eps=1e-05, elementwise_affine=True)
        (encoder_attn): MultiheadAttention(
          (dropout_module): FairseqDropout()
          (k_proj): Linear(in_features=1536, out_features=1536, bias=True)
          (v_proj): Linear(in_features=1536, out_features=1536, bias=True)
          (q_proj): Linear(in_features=1536, out_features=1536, bias=True)
          (out_proj): Linear(in_features=1536, out_features=1536, bias=True)
        )
        (encoder_attn_layer_norm): FusedLayerNorm(torch.Size([1536]), eps=1e-05, elementwise_affine=True)
        (fc1): Linear(in_features=1536, out_features=4096, bias=True)
        (fc2): Linear(in_features=4096, out_features=1536, bias=True)
        (final_layer_norm): FusedLayerNorm(torch.Size([1536]), eps=1e-05, elementwise_affine=True)
      )
    )
    (output_projection): Linear(in_features=1536, out_features=32088, bias=False)
  )
) from checkpoints/indicTrans/checkpoint_best.pt in evaluation mode
2022-10-28 12:08:59 | INFO | fairseq.data.iterators | grouped total_num_itrs = 16028
2022-10-28 12:09:07 | INFO | fairseq.trainer | begin training epoch 1
2022-10-28 12:09:07 | INFO | fairseq_cli.train | Start iterating over samples
2022-10-28 12:10:02 | WARNING | urllib3.connectionpool | Retrying (Retry(total=2, connect=None, read=None, redirect=None, status=None)) after connection broken by 'ProxyError('Cannot connect to proxy.', OSError('Tunnel connection failed: 403 Forbidden'))': /api/5288891/envelope/
…
